model/model.pth (torch, 16787 bytes, 4 tensors)

linear1.weight f4 [256, 11]
0	0x3d0eb750	0.03484279
1	0xbe7dd842	-0.24789527
2	0xbe8613c5	-0.26186958
3	0x3d3bdff8	0.04586789
4	0x3e69905f	0.2280898
5	0x3e802bfb	0.25033554
6	0xbca7a560	-0.0204646
7	0xbe90b0ef	-0.2825999
8	0x3d3620c7	0.044464853
9	0xbdd1fd6c	-0.102534145
10	0xbe20619f	-0.1566224
11	0xbd8a7e0a	-0.06762321
12	0xbdba1f64	-0.090880185
13	0x3e7945d4	0.24343044
14	0x3cdd6922	0.02702767
15	0x3d0b5f19	0.03402624
16	0xbdb99dbc	-0.090632886
17	0x3e453310	0.1925776
18	0xbe2406c6	-0.16018209
19	0x3e89d542	0.26920515
20	0x3e9e3f37	0.30907604
21	0xbe776836	-0.24160847
22	0x3d1bae64	0.03800811
23	0x3e2ac1d4	0.16675502
24	0x3d195ec8	0.037443906
25	0x3da9042c	0.08252749
26	0xbe8cc032	-0.27490383
27	0x3e1a3998	0.15061033
28	0x3daec192	0.08533014
29	0x3d955784	0.07292083
30	0xbe13db7c	-0.14439195
31	0x3d4445e1	0.047918204
32	0xbe94379b	-0.28948674
33	0xbdfdf2e7	-0.123998456
34	0x3e1824fc	0.14857858
35	0xbd7a2c70	-0.061077535
36	0x3d8f175b	0.069868766
37	0xbe0ae548	-0.13564026
38	0xbe94eacf	-0.29085395
39	0x3e2bf279	0.16791715
40	0x3e8c4848	0.27398896
41	0xbe8be2b8	-0.2732141
42	0xbbfdc80b	-0.0077447942
43	0x3e415a76	0.18882164
44	0x3d8777b7	0.06614631
45	0xbe960141	-0.29297832
46	0xbe39c0ce	-0.18139955
47	0x3e964a67	0.2935364
48	0xbe740248	-0.23828995
49	0xbe88cfbf	-0.26720998
50	0x3e630c3a	0.22172633
51	0xbe8d7b31	-0.2763305
52	0x3b9d217a	0.0047952505
53	0x3e567fbb	0.20947163
54	0x3e7c26d8	0.24624193
55	0x3e5ccef9	0.21563329
56	0xbe831c54	-0.2560755
57	0x3bc08ce6	0.0058761714
58	0xbe0c61c5	-0.13709171
59	0x3dc6a677	0.096997194
60	0xbcf667d7	-0.030078812
61	0x3dc09a27	0.09404402
62	0x3df8d6f8	0.12150377
63	0x3e6416cd	0.22274323
64	0x3e318df4	0.17339307
65	0xbe710f17	-0.23540913
66	0xbd0b3c61	-0.03399313
67	0x3cc4d2a0	0.024026215
68	0x3e512482	0.20424083
69	0x3e35ea88	0.17765248
70	0x3e63a784	0.22231871
71	0x3e5142f2	0.20435694
72	0xbcfd38e7	-0.030910922
73	0xbd7ec464	-0.06219901
74	0xbe4938d7	-0.19650589
75	0x3dc69e86	0.09698205
76	0xbccfa250	-0.025345951
77	0xbdfbcb4c	-0.12294635
78	0xbe37c2dd	-0.17945428
79	0xbe7f2d1a	-0.24919549
80	0xbe30d1e0	-0.17267561
81	0xbc007357	-0.007839999
82	0xbd9fb974	-0.07799044
83	0xbe5bcc6c	-0.214647
84	0x3dd16119	0.10223598
85	0xbdfe2b16	-0.12410562
86	0x3e377fbc	0.1791982
87	0x3e14734f	0.14497112
88	0x3dab6e54	0.08370653
89	0x3e6cee91	0.23137881
90	0x3e6f7b6f	0.2338693
91	0x3e4d26af	0.20034288
92	0x3e92fd52	0.28708893
93	0x3ce80de7	0.028326942
94	0xbe666a5a	-0.22501507
95	0x3dd70242	0.104984775
96	0x3ce9a117	0.028519196
97	0xbe1823c6	-0.14857396
98	0xbe91d223	-0.28480634
99	0xbde752ad	-0.11295066
100	0xbe92ee21	-0.28697303
101	0xbe127848	-0.14303696
102	0x3c987b7b	0.018613568
103	0x3c518ac8	0.012789436
104	0x3e76ea8d	0.24112912
105	0xbbf244c2	-0.0073934505
106	0xbd59e76b	-0.053199213
107	0x3e55dc28	0.20884764
108	0x3d27f7ee	0.04100793
109	0x3e6aaf5f	0.22918461
110	0xbe538712	-0.20656994
111	0xbe53ee24	-0.20696312
112	0x3e5abeb7	0.21361814
113	0xbcad58a7	-0.021160437
114	0x3e4971fd	0.1967239
115	0x3e0d008c	0.1376974
116	0x3cb207ef	0.021732299
117	0x3e83917d	0.25696936
118	0x3e37f6f8	0.17965305
119	0x3da00392	0.07813181
120	0xbdb3f8ab	-0.08787664
121	0x3d294af8	0.04133126
122	0xb92fe800	-0.00016775727
123	0x3d213760	0.03935945
124	0xbe010537	-0.12599646
125	0x3cb17aeb	0.021665057
126	0xbd3d8fbe	-0.04627966
127	0xbe3acdd9	-0.18242587
128	0x3d3d17f7	0.046165433
129	0xbe4dd624	-0.2010122
130	0xbe59a20c	-0.21253222
131	0x3e2c5ef1	0.16833092
132	0xbd9694c0	-0.073525906
133	0xbe7b1385	-0.24519165
134	0xbc14bf20	-0.009078771
135	0x3d6b3828	0.0574266
136	0x3e7e47ff	0.24832152
137	0x3dd7c54b	0.105356775
138	0x3e93d2f6	0.28871888
139	0x3e0cdcce	0.13756105
140	0xbc8a8fc2	-0.016914252
141	0xbe0db9d4	-0.13840419
142	0x3d1c4f7d	0.038161743
143	0x3cb33834	0.021877386
144	0x3ddd202c	0.10797152
145	0xbdf19f04	-0.11797908
146	0x3d9a7509	0.07541854
147	0xbe7f7a7a	-0.24949065
148	0xbe473276	-0.19452843
149	0x3e5db623	0.21651511
150	0xbc3cf997	-0.011534116
151	0xbe16e771	-0.14736725
152	0x3e9b3d5b	0.30320248
153	0x3d5c93ce	0.053851895
154	0xbe3bf04c	-0.18353385
155	0x3d6f1da8	0.05837789
156	0xbe1d0b10	-0.15336251
157	0xbe1e73d9	-0.1547388
158	0xbe4cc329	-0.19996323
159	0x3e0a0eb6	0.13482174
160	0x3e45aa26	0.19303188
161	0xbd812a34	-0.06306878
162	0xbd9a1dcf	-0.07525217
163	0x3df90594	0.12159267
164	0xbd598448	-0.05310467
165	0x3e53771d	0.20650907
166	0xba1c3412	-0.0005958687
167	0xbe85e6e9	-0.26152733
168	0xbe86023b	-0.26173577
169	0x3e0f0dcd	0.13970108
170	0xbd77d860	-0.060509086
171	0xbe81b09c	-0.25330055
172	0xbdf1f5ca	-0.11814459
173	0x3bc8ef42	0.0061320374
174	0x3e2a62eb	0.16639297
175	0x3cbaeabb	0.022817006
176	0x3da1215c	0.07867691
177	0x3e9936ef	0.29924724
178	0xbe946fed	-0.28991643
179	0xbe516ef8	-0.20452487
180	0x3e9958f6	0.29950684
181	0xbde17b36	-0.11009829
182	0xbd7ec0fd	-0.062195767
183	0xbdb49a2b	-0.08818468
184	0x3e98cdb7	0.29844448
185	0x3e1599ec	0.14609498
186	0x3d0bb053	0.034103703
187	0x3e645f69	0.22302021
188	0x3e7b8e32	0.24565962
189	0xbdfa6a28	-0.12227279
190	0xbe23a1f8	-0.15979755
191	0x3e444253	0.19165926
192	0xbe13b7a6	-0.14425525
193	0x3e9cdd30	0.30637503
194	0xbe6c1ba8	-0.23057425
195	0xbe3dbd9f	-0.18529366
196	0x3dd9cb27	0.10634451
197	0x3e671c71	0.22569443
198	0xbde503bc	-0.11182353
199	0xbe89f595	-0.26945177
200	0xbe323c58	-0.17405832
201	0x3df8e11e	0.12152313
202	0x3e4bb334	0.1989258
203	0x3e5b166d	0.21395274
204	0xbde1b360	-0.11020541
205	0xbda6d39d	-0.08145831
206	0xbcbd9120	-0.02314049
207	0xbe480917	-0.19534718
208	0xbe45b36a	-0.19306722
209	0x3c9222b0	0.017838806
210	0xbe20f23f	-0.1571741
211	0xbe8d9544	-0.27652943
212	0xbdaab44f	-0.083351724
213	0x3e84b0f6	0.2591626
214	0xbe6b28ca	-0.22964779
215	0xbe5059aa	-0.20346704
216	0xbd532ad1	-0.051554505
217	0xbe924f68	-0.28576207
218	0x3ca065d8	0.019579813
219	0xbe29fa3c	-0.16599363
220	0xbe79c8d4	-0.24393016
221	0xbd588e5c	-0.05287014
222	0x3e8f225d	0.27955905
223	0xbe76a40e	-0.2408602
224	0x3e868ce3	0.26279363
225	0xbe8fc255	-0.2807795
226	0x3e915be2	0.28390414
227	0x3e52954a	0.20564762
228	0x3e610a87	0.21976672
229	0xbe4fde74	-0.20299703
230	0xbe1e444c	-0.1545574
231	0x3e4b20bb	0.19836704
232	0xbe5243d0	-0.20533681
233	0x3d00e67a	0.0314698
234	0x3d19cab3	0.037546825
235	0x3e927aa3	0.2860919
236	0x3d68ae2d	0.056806732
237	0x3d83740c	0.064186186
238	0x3e338ecb	0.1753494
239	0x3e3b2972	0.18277529
240	0xbe09217d	-0.13391681
241	0xbe579043	-0.21051125
242	0x3e07d072	0.1326311
243	0x3e416a40	0.18888187
244	0xbc04c440	-0.00810343
245	0x3e4f5171	0.20245911
246	0x3d3eb3a6	0.046558045
247	0xbe995d04	-0.29953778
248	0xbe6aa2b0	-0.22913623
249	0xbe1b82a2	-0.15186551
250	0x3e07e19e	0.1326966
251	0xbdb6b2ba	-0.08920808
252	0x3e42b3fd	0.19013973
253	0xbe93828a	-0.2881053
254	0x3d6707c0	0.056403875
255	0xbe3c8d02	-0.18413165

linear1.bias f4 [256]
0	0xbe0b97e1	-0.13632156
1	0xbd989e24	-0.07452038
2	0x3e589ddd	0.2115397
3	0x3e68f56c	0.22749871
4	0xbe347bfb	-0.1762542
5	0xbdbfde66	-0.09368591
6	0x3e1c3ad9	0.15256824
7	0x3e1b05e6	0.15138969
8	0x3dad5558	0.08463544
9	0xbdbd5d87	-0.092463546
10	0x3e8b293e	0.27179903
11	0x3ceec08b	0.029144546
12	0xbe863dfb	-0.26219162
13	0xbe4158b3	-0.18881492
14	0xbe476e5a	-0.1947569
15	0x3e4f61cc	0.2025215
16	0x3e4cdc54	0.20005924
17	0xbe6c2cb8	-0.23063934
18	0x3de4ed71	0.11178101
19	0x3e9bf854	0.30462897
20	0xbdacc973	-0.08436861
21	0x3cf059fb	0.029339781
22	0xbdd7b45d	-0.105324484
23	0xbe7e5b10	-0.24839425
24	0x3d2197a0	0.03945124
25	0xbe8aa765	-0.27080837
26	0x3e898fcd	0.26867524
27	0xbe77a84b	-0.24185292
28	0x3e1dc1f9	0.15406026
29	0xbe9c36d1	-0.30510572
30	0x3cb9c70a	0.022677917
31	0xbddb49ae	-0.10707413
32	0x3e2bf544	0.1679278
33	0xbe62e66f	-0.22158216
34	0x3e27a581	0.16371728
35	0x3e9aac61	0.3020964
36	0x3e61e4e9	0.22059979
37	0x3e84ade6	0.25913924
38	0xbe6b4a2d	-0.22977515
39	0x3da1c6ff	0.078992836
40	0xbdee9e84	-0.11651328
41	0xbe4c555f	-0.19954441
42	0x3e1d60c1	0.1536894
43	0xbe857c58	-0.2607143
44	0x3e76ac9c	0.24089283
45	0xbdd1df66	-0.10247688
46	0xbe006101	-0.12537004
47	0x3c33f242	0.010983052
48	0xbdc38753	-0.095472954
49	0xbe190e6c	-0.14946908
50	0xbe8db849	-0.2767966
51	0xbde07dba	-0.109614804
52	0x3e9a008e	0.30078548
53	0x3e8fa391	0.2805448
54	0x3e5e9468	0.217363
55	0xbe1a1ecc	-0.1505081
56	0x3ddf634f	0.109076135
57	0x3cc8a830	0.02449426
58	0x3e7cc602	0.24684909
59	0xbbc4fed8	-0.006011825
60	0x3d6731ba	0.056443907
61	0x3e81959e	0.2530946
62	0x3d8716de	0.065961584
63	0xbe628f54	-0.22124988
64	0x3ce3b8ba	0.027798045
65	0xbc4b102a	-0.0123939905
66	0x3e0c15d6	0.13680205
67	0x3e8b306b	0.27185377
68	0xbdd9c8e0	-0.10634017
69	0xbdce42f2	-0.100713626
70	0x3e8770d8	0.2645328
71	0x3e7ed03e	0.24884126
72	0x3bf14f6c	0.007364204
73	0x3e5029c3	0.20328431
74	0xbe870fc9	-0.2637923
75	0x3e0f3971	0.13986756
76	0xbcc3626a	-0.023850638
77	0x3e0d30bc	0.13788122
78	0xbe71f690	-0.23629212
79	0x3e425fc8	0.1898185
80	0x3e63d53c	0.22249311
81	0x3e0804ae	0.13283035
82	0x3e6037f3	0.21896343
83	0xbe6ddacf	-0.23228
84	0xbb3447d8	-0.0027508643
85	0xbe2a23c2	-0.16615203
86	0x3e6b6563	0.22987895
87	0x3d9efbe7	0.0776289
88	0xbe1331f7	-0.14374529
89	0x3d300026	0.04296889
90	0xbe51f3aa	-0.20503107
91	0x3e716524	0.23573738
92	0x3decd7cf	0.115646
93	0x3dc1935f	0.09451937
94	0x3e8f515a	0.27991754
95	0x3e5ef78b	0.21774118
96	0x3d0a315f	0.03373849
97	0x3e5356fa	0.20638648
98	0x3d69f00f	0.057113703
99	0xbe8b2072	-0.2717319
100	0x3da3146a	0.07962878
101	0xbd897005	-0.06710819
102	0xbe69dfd4	-0.2283929
103	0xbe0408d3	-0.12893991
104	0xbe5b53c9	-0.2141868
105	0x3e1864f5	0.14882262
106	0xbe134f58	-0.14385736
107	0xbda18bf6	-0.078880236
108	0x3e8f2de9	0.27964714
109	0x3daa176c	0.083052486
110	0xbe92d3f6	-0.28677338
111	0xbe874d50	-0.26426172
112	0x3d19d721	0.03755868
113	0x3de84ad3	0.113423966
114	0x3e0ab294	0.13544685
115	0x3dec2ef8	0.11532396
116	0xbdb4bc89	-0.08825023
117	0x3dc3b0ca	0.09555204
118	0x3d94736d	0.07248578
119	0xbd829d7a	-0.063776925
120	0x3dc3d48c	0.095620245
121	0xbdb1e6b3	-0.086865805
122	0xbcb4c0a7	-0.02206452
123	0x3dec8aa6	0.115498826
124	0x3e86ea6e	0.2635073
125	0xbe992837	-0.29913494
126	0x3d64e971	0.05588669
127	0xbe495338	-0.19660652
128	0xbe2a47e9	-0.16628994
129	0x3c5f47d3	0.013627964
130	0x3e8d7871	0.27630952
131	0xbcffabb8	-0.031209812
132	0x3e5a861b	0.2134022
133	0xbdb79d4e	-0.0896555
134	0xbe971951	-0.29511502
135	0x3df6ad7c	0.12044808
136	0xbdf82636	-0.12116663
137	0xbd3bda2a	-0.045862354
138	0xbe71e5b0	-0.23622775
139	0xbd13e2a0	-0.0361048
140	0x3e36f185	0.1786557
141	0xbe94b20e	-0.29042095
142	0xbde9a157	-0.11407726
143	0x3e8b9be1	0.27267364
144	0xbe7b5195	-0.2454284
145	0x3e8dda54	0.27705634
146	0x3d99924a	0.074986055
147	0xbe2d56fc	-0.16927713
148	0x3d85e729	0.06538231
149	0x3c33c556	0.0109723415
150	0x3df39e21	0.11895395
151	0x3d9f0dab	0.07766279
152	0xbe9d5f60	-0.30736828
153	0x3d919c7c	0.07109925
154	0xbe9dffd7	-0.30859253
155	0x3e50ffbe	0.20410058
156	0x3df53daa	0.11974652
157	0x3e814f84	0.25255978
158	0xbe2b0b09	-0.16703428
159	0x3e36feec	0.17870682
160	0xbdeab5ea	-0.114604786
161	0xbe8e4f94	-0.27795088
162	0x3e1fe481	0.15614511
163	0xbe7df528	-0.24800551
164	0x3e86cb4d	0.2632698
165	0xbdd695fa	-0.104778245
166	0xbde48bc5	-0.111594714
167	0xbe4c9fad	-0.19982786
168	0xbe8c9411	-0.27456716
169	0x3e4083aa	0.18800226
170	0xbe3d9d94	-0.18517143
171	0xbe8655f9	-0.26237467
172	0x3e937909	0.2880328
173	0xbe3d1d57	-0.18468224
174	0xbc605033	-0.013690996
175	0xbe7321a6	-0.23743305
176	0x3e273d1f	0.1633191
177	0xbe317f69	-0.1733376
178	0xbe671fd7	-0.2257074
179	0xbc99b447	-0.01876272
180	0xbe81507c	-0.25256717
181	0x3d42e287	0.047579315
182	0x3e863b5e	0.2621717
183	0x3d72e07e	0.059296124
184	0x3e74efe9	0.23919643
185	0x3c96f86f	0.01842901
186	0xbdf95732	-0.12174834
187	0xbe8b5a0d	-0.2721714
188	0x3e896ea3	0.26842222
189	0xbda2abc9	-0.07942922
190	0x3d0833ed	0.033252645
191	0x3e40d5ec	0.18831605
192	0xbdfdf937	-0.124010496
193	0x3e39f40e	0.18159506
194	0x3e8392d3	0.25697955
195	0xbe8a3286	-0.2699167
196	0xbe05d8a0	-0.13070917
197	0x3df30d89	0.11867816
198	0xbc806b29	-0.015676098
199	0xbe281f6f	-0.16418241
200	0xbda81dd1	-0.08208812
201	0xbddad98e	-0.106860265
202	0xbde0ea41	-0.109821804
203	0x3cc9f2b1	0.024651857
204	0x3e797e71	0.2436464
205	0x3d14e56c	0.036351606
206	0xbe724c02	-0.23661807
207	0xbde741b2	-0.11291827
208	0xbd419e69	-0.047270212
209	0x3e64356e	0.22286007
210	0x3e422056	0.18957648
211	0xbe3421ae	-0.17590973
212	0xbd9114ca	-0.07084043
213	0x3c96428c	0.018342279
214	0xbe296258	-0.16541421
215	0x3e2e42da	0.1701769
216	0xbdc4c6f5	-0.096082605
217	0x3e52c4c6	0.20582876
218	0x3dea0fe6	0.11428814
219	0x3e8884c7	0.266638
220	0x3e499df8	0.19689167
221	0x3dca7759	0.09886045
222	0x3ccafe7d	0.024779553
223	0x3da3c728	0.079969704
224	0xbe1ebe35	-0.15502246
225	0xbe1b8910	-0.15189004
226	0x3d6b37b4	0.05742617
227	0xbe0f45bb	-0.13991444
228	0xbd3a04e3	-0.045414817
229	0x3d3fe0b3	0.04684515
230	0xbe3b650e	-0.18300268
231	0xbcd7c8d0	-0.026340872
232	0x3e449c76	0.1920031
233	0x3d561f9c	0.05227624
234	0xbe11a056	-0.1422132
235	0xbd926e6b	-0.07149967
236	0xbdfe34a3	-0.124123834
237	0xbe337388	-0.1752454
238	0x3e66a208	0.22522748
239	0x3d88ec93	0.06685748
240	0xbd1ac5bf	-0.03778624
241	0x3de0a468	0.10968858
242	0x3e6db393	0.23213033
243	0x3dbd95e6	0.092571065
244	0x3d826881	0.06367589
245	0xbdd8faeb	-0.10594734
246	0x3e1b572d	0.15169974
247	0xbd7aa864	-0.061195746
248	0x3d8e110c	0.06936845
249	0xbe8d9baf	-0.2765784
250	0xbd318364	-0.043338194
251	0x3d68e0e2	0.05685509
252	0x3d4b6886	0.04966023
253	0x3db4a953	0.088213585
254	0xbe5dad00	-0.21648026
255	0x3c8b2f38	0.01699029

linear2.weight f4 [3, 256]
0	0x37bada38	2.2274544e-05
1	0xbd57815f	-0.052613612
2	0xbcefefa0	-0.029289067
3	0xbcac1786	-0.02100731
4	0xbd1f0687	-0.038824584
5	0x3a6283f4	0.00086408784
6	0xbd0e6aba	-0.03476975
7	0xbcd78115	-0.026306668
8	0xbccd646d	-0.0250723
9	0xbd591ca1	-0.05300582
10	0x3cc2dc22	0.023786608
11	0xbcebec3d	-0.02879917
12	0x3d26ffae	0.04077118
13	0xbd07ca74	-0.03315206
14	0xbd4b5dce	-0.049650006
15	0x3d024071	0.031799737
16	0x3d37ce4e	0.04487448
17	0xbd478c6f	-0.048717912
18	0x3d4b5516	0.04964169
19	0x3d41f23b	0.04735015
20	0xbcbc0fbb	-0.02295672
21	0xbc9ec989	-0.019383209
22	0xbd14892f	-0.03626364
23	0xbd01059b	-0.031499486
24	0x3bc541bc	0.006019799
25	0x3d720912	0.05909068
26	0x3c9f4233	0.019440746
27	0xbc549aa6	-0.012976324
28	0xbd3121c6	-0.0432451
29	0x3d2bb71a	0.041922666
30	0xbcf0bbd2	-0.029386435
31	0xbd5b338c	-0.053515956
32	0xbba67d64	-0.0050808657
33	0xbbf35f42	-0.007427127
34	0x3c8867c7	0.016651047
35	0xbcdf64e6	-0.027269792
36	0xbd02b81d	-0.031913865
37	0x3d7fdf0c	0.062468573
38	0x3cfb9dff	0.030714987
39	0xbd3b1e65	-0.045683283
40	0xbd3128ac	-0.04325168
41	0xbcbb2692	-0.02284554
42	0x3a844344	0.0010090847
43	0xbca49879	-0.020092236
44	0x3d49e62e	0.049291782
45	0x3d165a86	0.036707424
46	0xbcc59b8b	-0.02412202
47	0xbd722df7	-0.059125867
48	0x3d5a9e9d	0.05337392
49	0xb9f78dab	-0.00047217062
50	0x3cec8d3a	0.028875936
51	0x3d2e360a	0.042532004
52	0x3c72188a	0.014776358
53	0x3c479225	0.01218084
54	0x39797b98	0.00023792533
55	0xbc0dfd79	-0.00866639
56	0x3d1f965d	0.038961757
57	0xbbf3a482	-0.0074353823
58	0xbc8b2ad2	-0.016988192
59	0xbce68141	-0.028137805
60	0x3ccf8240	0.025330663
61	0xbbad62b9	-0.0052913097
62	0x3d2f8555	0.042851765
63	0xbbc4b5fd	-0.00600314
64	0x3d3c8ca4	0.046032563
65	0xbd631742	-0.055442102
66	0x3d0d4d91	0.0344978
67	0x3d128796	0.035773836
68	0xbc3be017	-0.011467001
69	0xbcde0dcb	-0.027106186
70	0xbd8b643e	-0.06806229
71	0xbcc03a92	-0.023465429
72	0xbcdf5823	-0.027263707
73	0x3b8ac848	0.004235301
74	0x3cf1946a	0.029489715
75	0xbb8147ff	-0.00394535
76	0xbcff3f28	-0.031158045
77	0xbb04f0e9	-0.0020285195
78	0xbd203bc6	-0.039119504
79	0xbd205cbd	-0.039150942
80	0x3c9f7432	0.019464586
81	0xbd626365	-0.05527057
82	0xbd3bf733	-0.045890044
83	0xbd497407	-0.049182918
84	0xbb0fd43a	-0.0021946565
85	0xbd11f4c8	-0.035633832
86	0xbd27d0df	-0.04097068
87	0x3d6e3560	0.05815637
88	0xbd2fcf9c	-0.0429226
89	0x3cdc368b	0.026881477
90	0x3d1b2172	0.037873693
91	0xbc24c39d	-0.010056403
92	0x3d747559	0.059682224
93	0x3d0d2a5b	0.03446422
94	0x3bd758f3	0.006571883
95	0xbc5e9a2e	-0.013586564
96	0xbc502262	-0.01270351
97	0xbaee006e	-0.0018158087
98	0xbc62d2f2	-0.013844239
99	0xbc9642dc	-0.018342428
100	0xbd205d27	-0.039151337
101	0x3b724dba	0.0036972598
102	0x3d23518c	0.03987269
103	0x3c863a64	0.016385265
104	0xbd89ebb6	-0.067344114
105	0x3d517116	0.051133238
106	0x3d03a698	0.032141298
107	0x3c777531	0.015103624
108	0xbd463bab	-0.048396748
109	0xbc9459c9	-0.01810922
110	0x3cf1e316	0.029527228
111	0x3bf9036a	0.007599284
112	0xbb0d2490	-0.0021536686
113	0x3d597e53	0.053098988
114	0xbcd8c3bf	-0.026460527
115	0x3c9e15c7	0.019297494
116	0xbd156db1	-0.036481563
117	0xbcf84bd2	-0.030309591
118	0x3d445e5c	0.04794155
119	0x3d2d7e53	0.0423568
120	0xbd4fd677	-0.05074164
121	0x3d00d19d	0.031449903
122	0xbd312710	-0.043250144
123	0xbd00571b	-0.03133307
124	0xbd17c9a2	-0.037057526
125	0x3d2ac14a	0.04168824
126	0x3cf3cfbb	0.02976214
127	0xbcf2e63f	-0.029650806
128	0x35460000	7.376075e-07
129	0x3be33882	0.0069342265
130	0xbc89830c	-0.01678612
131	0xbd4ca06c	-0.049957678
132	0xbd2c9c9f	-0.042141553
133	0xbd4628b0	-0.048378646
134	0x3cec7297	0.028863234
135	0xbc0ab7c8	-0.008466668
136	0xbd231d8e	-0.039823107
137	0xbc69485e	-0.014238445
138	0x3c96fcfb	0.018431177
139	0xbbf82920	-0.007573262
140	0xbd352272	-0.044222303
141	0x3c12e10e	0.00896479
142	0x3d09d405	0.033649463
143	0xbb82ec6b	-0.0039954684
144	0x3d304073	0.043030214
145	0x3d205f97	0.03915366
146	0xbd62d556	-0.055379234
147	0xbd18e77b	-0.037330132
148	0xbd4dd90a	-0.050255813
149	0xbd1a8329	-0.03772274
150	0xbd696bed	-0.05698769
151	0x3cf09ca4	0.029371567
152	0x3d151e6e	0.036405973
153	0xbc99e017	-0.018783612
154	0x3d09b451	0.03361923
155	0x3c9a7aef	0.018857447
156	0x3d59928b	0.05311827
157	0xbce2f27c	-0.027703516
158	0x3d141b3f	0.036158796
159	0xbb46fce8	-0.0030363146
160	0xbd51d6f2	-0.05123038
161	0x3c09baa7	0.008406318
162	0x3b9225ca	0.004460071
163	0xbd3bdcf9	-0.045865033
164	0x3d1ce82e	0.03830736
165	0x3ccfb753	0.02535597
166	0xbb611a94	-0.0034348117
167	0x3c8d5ea8	0.01725705
168	0xbc85b18a	-0.016320009
169	0xbd7e2246	-0.062044404
170	0xbd055ff3	-0.032562207
171	0x3d424a03	0.047433864
172	0x3d65daab	0.05611674
173	0x39f5edae	0.00046907127
174	0x3cf5750b	0.029963037
175	0xbd55dcc7	-0.052212503
176	0x3c4c8bf2	0.012484537
177	0xbc429d40	-0.011878312
178	0xbc5c142d	-0.013432545
179	0xbbcab0c7	-0.0061856243
180	0xbd0c4aa1	-0.03425086
181	0xbd6d8d7a	-0.05799625
182	0xbd5e3b6e	-0.054255895
183	0x3d3490ab	0.04408328
184	0x3b0ba625	0.0021308747
185	0xbca8e143	-0.020615226
186	0xb9a9315a	-0.00032270962
187	0xbd25a008	-0.04043582
188	0x3d4e8429	0.050419006
189	0xbd8418e6	-0.064500615
190	0xbd1cadb2	-0.038251586
191	0xbd39ec5e	-0.045391433
192	0xbce1d535	-0.027567485
193	0xbd315234	-0.043291286
194	0x3ce69534	0.028147317
195	0x3c125950	0.008932427
196	0xbcfb8cc3	-0.030706769
197	0x3cac64ca	0.021044154
198	0x3caa344f	0.020776896
199	0xbb9c19b0	-0.0047638044
200	0x3d3ce0f5	0.046112973
201	0xbd50cfb4	-0.05097933
202	0xb9ee920a	-0.00045503705
203	0x3c618a30	0.013765857
204	0xbb829bfc	-0.00398588
205	0x3bfbd2f7	0.007685061
206	0x3c89494f	0.01675859
207	0xbc882424	-0.016618796
208	0x3cb5d776	0.022197466
209	0x3cc2da27	0.023785664
210	0x3d0451d0	0.032304585
211	0xbd08914d	-0.033341695
212	0xbd2d956a	-0.04237882
213	0x3ce18076	0.027527075
214	0x3d033450	0.03203231
215	0xbd2d4de3	-0.042310607
216	0x3d3b9afc	0.0458021
217	0x3c26a523	0.010171208
218	0x3b653c4f	0.0034978574
219	0xbca5723c	-0.020196073
220	0xbcb25424	-0.021768637
221	0xbd200b4e	-0.03907328
222	0x3d19269a	0.03739033
223	0xbd3133f4	-0.043262437
224	0xbcfe218b	-0.031021854
225	0xbcbd1f73	-0.023086285
226	0x3d87a79d	0.066237666
227	0xbcf52af2	-0.029927704
228	0xbd136c61	-0.03599203
229	0xbd2187c1	-0.039436106
230	0xbc94ca02	-0.018162731
231	0x3d050742	0.032477625
232	0xbd2d7734	-0.04235001
233	0x3cfb9844	0.030712254
234	0xbb64d793	-0.0034918531
235	0x3cd851b5	0.026406148
236	0x3ce545b8	0.027987346
237	0x3b7b4880	0.0038342774
238	0xbc8b1e63	-0.016982263
239	0x3994b318	0.00028362195
240	0xbcbb895c	-0.022892646
241	0x3cd105ab	0.025515398
242	0xbc12c366	-0.008957719
243	0x3b8e1f82	0.004337252
244	0x3c9c7d85	0.019102821
245	0xbcf2545b	-0.02958124
246	0xbc84a094	-0.01618985
247	0x3bb1acb4	0.005422199
248	0x3d65a377	0.056064095
249	0xbb2fd891	-0.0026831964
250	0xbab7d6e5	-0.0014025836
251	0xbc96a4a3	-0.018389052
252	0xbd63e551	-0.055638615
253	0xbbb0474e	-0.005379594
254	0x3b812120	0.0039407164
255	0xbcbc7060	-0.023002803

linear2.bias f4 [3]
0	0xbd7c576a	-0.061606802
1	0x3c5057f6	0.012716284
2	0xbb1ec7d9	-0.0024228005
