model/model.pth (torch, 16787 bytes, 4 tensors)

linear1.weight f4 [256, 11]
-0.42381588 0.014625259 0.34388578 0.1782929 -0.2277937 -0.23563136 0.31394023 0.3377841
-0.2007643 -0.18250439 0.32830048 0.16350143 0.213368 -0.026830593 -0.2350804 -0.07323109
0.12409306 -0.19098315 0.30239868 -0.011718325 -0.19901365 0.21159786 0.3417549 0.004612105
-0.024931593 -0.13021958 -0.33047208 -0.26365432 -0.047001664 0.35483992 0.48152447 0.47554734
0.18657573 0.24326947 0.00475473 0.015696678 -0.28268942 -0.06917962 0.14331605 -0.3151503
0.37261444 0.21371989 0.036424316 0.44833994 -0.098923564 -0.19554166 -0.06692263 -0.041563116
0.2727694 0.17775239 -0.14336824 0.041624893 -0.41993523 -0.03788296 -0.36251903 -0.064934134
0.3618641 0.47967067 -0.18275537 -0.16551912 0.032389585 -0.0006546806 0.049127884 0.15542278
0.29749832 0.37033954 0.17785779 0.10422385 0.14549096 -0.1993782 -0.08167803 0.33810085
-0.38295472 0.2736768 0.1380672 -0.22311004 0.4261436 0.41118 0.44753525 0.17459993
-0.088180006 -0.20846961 -0.106338724 -0.039467987 0.2464695 0.42208162 0.43138316 0.45585647
-0.031455804 0.11080051 -0.1525496 0.3233374 -0.07738272 0.0016968206 -0.471203 -0.19722942
0.11631972 -0.057501927 0.42485064 -0.061132375 0.020840017 -0.09713003 -0.024760539 -0.3607273
-0.19096746 -0.17544807 -0.19129518 0.17445655 0.07899737 -0.0791998 0.47327095 0.43054318
-0.36415783 -0.2291189 -0.18510254 0.091666736 -0.18882954 0.09424741 -0.069263056 -0.2799519
0.01016034 0.11127798 -0.42361647 0.4541086 0.3455439 0.039057735 -0.18474247 -0.15753593
0.17267723 -0.28253528 0.10675523 -0.068264276 -0.2307714 0.4496123 -0.006598252 -0.13340561
-0.4535878 0.42379516 0.18559158 -0.50205654 -0.53260577 0.07171126 0.14385124 0.022870474
0.34852764 -0.13450295 -0.055003565 -0.44403434 0.2610914 -0.37100604 0.14574236 -0.469954
0.0068455325 -0.59102 -0.19984025 -0.29518715 -0.48183683 -0.37941188 0.13569206 -0.061163153
-0.17619972 0.20316252 -0.064385585 -0.15042384 0.35091126 0.14215301 -0.23543827 -0.19085862
-0.44012392 0.38158488 -0.11799722 0.053982623 -0.5649774 0.22765127 -0.44361582 -0.2860255
0.016485699 -0.07371763 0.57793385 -0.35840178 -0.015548606 -0.38512135 0.204585 0.46444237
-0.016167214 0.4059406 -0.05898028 0.020530816 -0.13325407 0.037223704 -0.33211985 -0.21100426
-0.16151868 -0.205498 -0.38102487 -0.00058167253 0.10556804 -0.2383261 0.45054618 0.45254827
-0.052907296 -0.0514939 0.10313578 -0.07597166 0.086250976 0.27381903 0.35270914 0.36198643
0.12283335 0.3003234 0.02182931 -0.5939798 -0.058528274 0.1925926 -0.16797084 -0.25126284
0.11371979 -0.128977 0.2773219 0.35589838 0.046882678 0.34039122 0.36773652 -0.26727584
-0.0034756132 -0.40500507 0.14028324 0.2884597 -0.09611749 0.35568866 -0.16905835 0.09736195
-0.28072324 -0.25095075 -0.36589113 0.5549593 0.0031423871 -0.12995031 -0.46007875 0.3608976
-0.36608118 -0.2116799 -0.60141385 -0.48484445 0.34464973 -0.06889125 0.071681805 0.36747125
0.18080056 -0.33654657 0.21070008 0.37253845 0.1354515 0.19111083 0.21219131 -0.4134071
00000000: 65fe d8be c89e 6f3c cc11 b03e 6a92 363e
00000010: c042 69be 5949 71be c6bc a03e 0af2 ac3e
00000020: 2895 4dbe 6ee2 3abe 0017 a83e eb6c 273e
00000030: 247d 5a3e d5cb dbbc ebb8 70be 2ffa 95bd
00000040: 8124 fe3d 1691 43be 00d4 9a3e 38fe 3fbc
00000050: 3cca 4bbe 1cad 583e 80fa ae3e 2421 973b
00000060: 573d ccbc 4858 05be a333 a9be b3fd 86be
00000070: d184 40bd 94ad b53e 608a f63e f17a f33e
00000080: b50d 3f3e a21b 793e 91cd 9b3b 5296 803c
00000090: abbc 90be 0bae 8dbd 71c1 123e 615b a1be
000000a0: 52c7 be3e 63d9 5a3e aa31 153d d08c e53e
000000b0: 7098 cabd 133c 48be bb0e 89bd 163e 2abd
000000c0: 6ea8 8b3e b904 363e 20cf 12be dd7e 2a3d
000000d0: c001 d7be 2a2b 1bbd 189c b9be 30fc 84bd
000000e0: 4046 b93e 6597 f53e 3924 3bbe d87d 29be
000000f0: f1aa 043d df9e 2bba 523a 493d 2627 1f3e
00000100: b351 983e 259d bd3e 5a20 363e 5073 d53d
00000110: 95fb 143e cd29 4cbe d046 a7bd 8e1b ad3e
00000120: a412 c4be 5e1f 8c3e 7d61 0d3e f576 64be
00000130: 7e2f da3e 2f86 d23e 5723 e53e 53ca 323e
00000140: b897 b4bd 0f79 55be 1ec8 d9bd 2fa9 21bd
00000150: 8062 7c3e 151b d83e 41de dc3e 0566 e93e
00000160: cdd7 00bd 61eb e23d f635 1cbe 7b8c a53e
00000170: d57a 9ebd da67 de3a 8541 f1be 82f6 49be
00000180: 0939 ee3d 2487 6bbd 0686 d93e f165 7abd
00000190: afb8 aa3c 1cec c6bd 9dd6 cabc 40b1 b8be
000001a0: f98c 43be a9a8 33be e2e2 43be bda4 323e
000001b0: 60c9 a13d 8133 a2bd 9250 f23e 2870 dc3e
000001c0: e572 babe 259e 6abe 858b 3dbe c5bb bb3d
000001d0: 885c 41be c904 c13d cad9 8dbd db55 8fbe
000001e0: 8e77 263c b6e5 e33d 42e4 d8be ec80 e83e
000001f0: 21eb b03e 01fb 1f3d 212d 3dbe 1951 21be
00000200: 4dd2 303e 77a8 90be 7ca2 da3d 24ce 8bbd
00000210: 564f 6cbe 9533 e63e 2636 d8bb 7b9b 08be
00000220: a93c e8be aefb d83e b80b 3e3e c786 00bf
00000230: da58 08bf 5add 923d bd4d 133e dc5a bb3c
00000240: 3772 b23e 24bb 09be 6b4b 61bd 7858 e3be
00000250: c6ad 853e 81f4 bdbe 7c3d 153e d09d f0be
00000260: 7d50 e03b 164d 17bf eca2 4cbe c522 97be
00000270: 51b3 f6be 4642 c2be dcf2 0a3e 3786 7abd
00000280: b36d 34be d609 503e 97dc 83bd b508 1abe
00000290: a4aa b33e 8f90 113e bb16 71be 7170 43be
000002a0: ec57 e1be 185f c33e 87a8 f1bd e21c 5d3d
000002b0: 5ca2 10bf 6a1d 693e 9d21 e3be ef71 92be
000002c0: 040d 873c 45f9 96bd 79f3 133f 7080 b7be
000002d0: 95bf 7ebc a02e c5be bb7e 513e 64cb ed3e
000002e0: 1b71 84bc 72d7 cf3e 4e95 71bd 3e30 a83c
000002f0: c173 08be e277 183d 9d0b aabe 8011 58be
00000300: 2765 25be 116e 52be b115 c3be 627b 18ba
00000310: 0e34 d83d c20b 74be fdad e63e 68b4 e73e
00000320: 52b5 58bd 45eb 52bd da38 d33d 0897 9bbd
00000330: 5aa4 b03d 0232 8c3e 4b96 b43e 4956 b93e
00000340: 0d90 fb3d fdc3 993e 62d3 b23c 0f0f 18bf
00000350: 58bb 6fbd ff36 453e 8c00 2cbe 86a5 80be
00000360: ece5 e83d 8c12 04be 23fd 8d3e 5038 b63e
00000370: 0d08 403d c247 ae3e f647 bc3e 61d8 88be
00000380: 1dc7 63bb d35c cfbe 69a6 0f3e fdb0 933e
00000390: 3fd9 c4bd d31c b63e a21d 2dbe b465 c73d
000003a0: f5ba 8fbe 9e7c 80be 1556 bbbe d011 0e3f
000003b0: 82f0 4d3b b211 05be 718f ebbe 92c7 b83e
000003c0: fe6e bbbe 9ec2 58be 42f6 19bf 883d f8be
000003d0: ee75 b03e db16 8dbd e9cd 923d 3125 bc3e
000003e0: c823 393e d54f acbe c3c1 573e 5cbd be3e
000003f0: ccb3 0a3e 8fb2 433e ae48 593e 18aa d3be

linear1.bias f4 [256]
-0.149412 -0.18073551 -0.17995353 -0.16161138 0.08249672 -0.13681026 -0.18520838 -0.29088446
-0.05226208 -0.044015005 0.015639212 -0.18085529 0.097218685 0.23736721 -0.20738357 0.20651133
-0.14763713 -0.021345975 -0.28661475 -0.05139629 -0.09403598 -0.075825244 -0.122221835 -0.013098669
0.010065035 0.019427119 0.0937452 0.18872976 -0.23622721 -0.012078189 -0.0166604 0.16663027
0.24950019 -0.24176525 -0.30455175 0.31848732 -0.085171394 -0.29933435 -0.18876137 -0.09339997
-0.2047132 0.55055046 -0.24817428 0.022648875 -0.041698266 0.29132813 -0.16104053 -0.38235196
0.034503277 -0.19283448 -0.08666701 -0.06064588 0.60028243 -0.19912939 -0.38233447 0.09739947
0.3425821 -0.02619327 -0.1407466 0.9303948 -0.11201753 -0.14529403 -0.19451495 -0.011697511
0.14433153 -0.061356187 0.023721289 0.30261123 -0.06342771 -0.13966374 -0.020635365 -0.1466579
0.113214076 -0.26102796 -0.24789605 -0.11715699 -0.07535156 -0.24058776 -0.15580246 -0.34937185
0.38096613 -0.16171716 -0.2788526 -0.24812895 0.14219283 0.14007549 -0.2262566 -0.14752221
-0.08993373 -0.084891945 0.00043630172 -0.0052011353 0.27202484 0.03136446 -0.17939588 0.122913994
-0.118769705 -0.25752854 -0.24112023 -0.23591696 -0.07069786 0.15530446 -0.08966125 -0.17189123
-0.25644276 0.2904221 0.2262636 0.17058411 -0.2035085 -0.18431407 -0.11786908 -0.11990971
-0.039870508 -0.048629757 0.3705144 0.078208745 0.18699934 -0.29376733 -0.10766116 -0.10462685
0.102255166 0.4171297 -0.036720373 -0.11903293 -0.19616316 -0.047039706 -0.08376112 0.30790412
-0.32905886 -0.11055371 -0.18540177 -0.12214929 -0.058622226 -0.37016165 -0.00857072 -0.011905308
-0.17203248 -0.37889546 -0.13960762 -0.19380714 0.58417636 -0.051272083 -0.24243236 -0.2270874
-0.01727873 0.024432985 0.49434212 -0.15125193 -0.03830602 0.5812381 -0.15139186 0.00015825056
0.55815244 0.10718578 -0.0037883061 -0.12503141 -0.2727752 0.099207126 0.24859239 0.148889
0.10756506 0.1561926 -0.15413931 0.06949894 0.22500996 -0.0084053865 0.055676736 -0.12522532
-0.15423495 -0.22079583 -0.08978993 -0.12997307 0.42871505 -0.00875197 -0.18020913 -0.21225367
-0.08270791 -0.16943933 -0.28793213 -0.018937385 0.13210467 0.009979389 -0.17371027 -0.22951362
-0.3629818 -0.36044326 -0.17344837 -0.27216786 -0.38709816 -0.2743862 -0.17712997 -0.097531706
-0.29880354 0.074215375 -0.054908372 -0.28077364 -0.27511856 0.014283308 -0.11946951 -0.13170516
0.28548127 -0.26880234 0.090409905 0.110460244 0.30874667 0.06955766 0.053472176 -0.12541914
-0.14993694 -0.037863676 0.18445691 -0.23059417 -0.0503742 -0.21394132 -0.0903236 -0.32394072
0.08473477 0.30312252 -0.20560692 -0.10259688 -0.030730937 -0.22107765 -0.5652348 0.04973391
-0.18808208 -0.058614604 -0.17011555 0.14607903 -0.080901295 -0.28808635 0.00974127 -0.27216083
-0.09773063 0.14175391 -0.25123924 -0.04495586 0.8841425 -0.12120679 0.42886892 0.22278452
-0.10075 -0.18187182 -0.08565949 -0.26638266 0.34880033 -0.094722666 -0.29005748 -0.221516
-0.19128495 -0.028480994 -0.21686582 0.465263 -0.28499612 -0.34595987 -0.084759936 -0.35415816
00000000: 76ff 18be bb12 39be bd45 38be 747d 25be
00000010: 0af4 a83d fd17 0cbe 44a7 3dbe cfee 94be
00000020: c310 56bd 1449 34bd ce1d 803c 2132 39be
00000030: 971a c73d 6410 733e 5c5c 54be b577 533e
00000040: 302e 17be c1dd aebc 2bbf 92be eb84 52bd
00000050: f095 c0bd 444a 9bbd 714f fabd cd9b 56bc
00000060: d1e7 243c 9f25 9f3c 7cfd bf3d 6042 413e
00000070: 8ce5 71be 99e3 45bc 647b 88bc 20a1 2a3e
00000080: fa7c 7f3e 4f91 77be 35ee 9bbe c510 a33e
00000090: 576e aebd 5a42 99be a94a 41be 7c48 bfbd
000000a0: 56a0 51be e0f0 0c3f 6621 7ebe 228a b93c
000000b0: cdcb 2abd f628 953e cfe7 24be a3c3 c3be
000000c0: 4f53 0d3d 6776 45be 797e b1bd d067 78bd
000000d0: 1cac 193f 93e8 4bbe 58c1 c3be 6079 c73d
000000e0: ec66 af3e 4593 d6bc e01f 10be 5b2e 6e3f
000000f0: 7269 e5bd f5c7 14be ed2e 47be eba6 3fbc
00000100: a5cb 133e a050 7bbd 2653 c23c dcef 9a3e
00000110: 63e6 81bd 0304 0fbe 7f0b a9bc 7d2d 16be
00000120: c8dc e73d 75a5 85be 76d8 7dbe 01f0 efbd
00000130: eb51 9abd a35c 76be ae8a 1fbe dee0 b2be
00000140: fe0d c33e 2f99 25be c5c5 8ebe 8415 7ebe
00000150: ff9a 113e f36f 0f3e cfaf 67be 1010 17be
00000160: 2d2f b8bd d4db adbd 6dbf e439 496e aabb
00000170: d746 8b3e 0578 003d 8eb3 37be 55ba fb3d
00000180: 883d f3bd c8da 83be 39e8 76be 3794 71be
00000190: 0aca 90bd 2208 1f3e 51a0 b7bd 4104 30be
000001a0: 774c 83be 35b2 943e a5b1 673e 9aad 2e3e
000001b0: 8864 50be d4bc 3cbe 5865 f1bd 3993 f5bd
000001c0: 424f 23bd ff2f 47bd 10b4 bd3e e82b a03d
000001d0: c17c 3f3e ac68 96be 747d dcbd 9a46 d6bd
000001e0: 286b d13d 0692 d53e 1a68 16bd 89c7 f3bd
000001f0: ffde 48be b5ac 40bd f38a abbd 9ca5 9d3e
00000200: 677a a8be fc69 e2bd f6d9 3dbe 6829 fabd
00000210: dc1d 70bd d485 bdbe 356c 0cbc 7b0e 43bc
00000220: 4829 30be 96fe c1be 4df5 0ebe 6175 46be
00000230: 958c 153f ad02 52bd 3040 78be 9989 68be
00000240: 208c 8dbc af27 c83c 691a fd3e c9e1 1abe
00000250: c6e6 1cbd 05cc 143f 7806 1bbe 10f0 2539
00000260: 14e3 0e3f 3884 db3d 3b45 78bb 3c08 00be
00000270: 31a9 8bbe 1b2d cb3d 018f 7e3e 5c76 183e
00000280: 124b dc3d f4f0 1f3e b2d6 1dbe 7655 8e3d
00000290: 0369 663e bfb6 09bc 4a0d 643d 113b 00be
000002a0: c4ef 1dbe 4d18 62be c8e3 b7bd a917 05be
000002b0: 8a80 db3e 6c64 0fbc be88 38be 0759 59be
000002c0: c462 a9bd 8181 2dbe d76b 93be 9322 9bbc
000002d0: 7246 073e 9780 233c 1be1 31be 9e05 6bbe
000002e0: c0d8 b9be 058c b8be 739c 31be 9659 8bbe
000002f0: bb31 c6be 597c 8cbe 8f61 35be b4be c7bd
00000300: c7fc 98be 3bfe 973d 9ae7 60bd 90c1 8fbe
00000310: 57dc 8cbe 8904 6a3c 6eac f4bd b8dd 06be
00000320: 9a2a 923e 76a0 89be d428 b93d fb38 e23d
00000330: 0b14 9e3e 3f74 8e3d a405 5b3d e06d 00be
00000340: 1289 19be f116 1bbd 46e2 3c3e e120 6cbe
00000350: 2d55 4ebd 6f13 5bbe 94fb b8bd 8fdb a5be
00000360: 6c89 ad3d e032 9b3e 9f8a 52be 501e d2bd
00000370: 72bf fbbc 2e62 62be 3ab3 10bf c9b5 4b3d
00000380: 9798 40be de15 70bd c532 2ebe be95 153e
00000390: 94af a5bd 0e80 93be d999 1f3c aa58 8bbe
000003a0: ff26 c8bd f027 113e 6ea2 80be a323 38bd
000003b0: 2a57 623f 443b f8bd b594 db3e a021 643e
000003c0: 0456 cebd 9b3c 3abe 3e6e afbd 4f63 88be
000003d0: f595 b23e f5fd c1bd 6a82 94be 17d5 62be
000003e0: 34e0 43be f950 e9bc 1312 5ebe f436 ee3e
000003f0: 03eb 91be a721 b1be 9e96 adbd 3854 b5be

linear2.weight f4 [3, 256]
0.24280398 0.0027865288 -0.28512362 -0.400241 -0.060027514 -0.018216262 -0.27107763 -0.25215492
-0.27123556 -0.044367652 -0.034612864 0.10726683 0.4970708 0.21061386 -0.13616446 0.37814897
-0.3065625 0.017073445 -0.19092487 -0.14768194 -0.08043866 0.39318615 0.22190225 0.0013485611
-0.04714013 0.051156282 0.4734747 0.055661295 -0.00054350606 0.11343871 -0.44083023 0.34830642
0.36337802 0.060778633 -0.28037992 0.15947288 -0.038255323 0.025510551 0.011356007 0.031953618
-0.068373494 0.5889768 0.0139924055 0.01975161 0.14381814 -0.024591554 -0.46537653 -0.34876186
-0.33671892 -0.17313029 -0.02725568 0.009326165 0.3092787 -0.18019596 -0.011244172 0.09662436
0.38742512 0.30594644 -0.04051244 0.1985715 -0.19657783 -0.122189194 -0.07725899 -0.31599057
0.34297335 -0.020446349 -0.3748064 0.28376022 -0.044484388 -0.17034678 -0.11814466 -0.086626604
0.10546968 -0.016153203 0.015652385 0.06447934 0.037964225 -0.015274898 -0.032095212 -0.274721
0.41939756 -0.18884352 -0.23063256 -0.0932189 0.13393691 0.43669719 0.043125775 -0.16089025
-0.20674667 -0.13031986 0.47821432 -0.5545613 0.28648034 -0.14061575 0.015008962 -0.16750962
-0.17457694 -0.26500434 -0.03897744 -0.4032336 -0.02649139 0.06889071 -0.5621516 -0.0065925536
-0.25802213 0.31431556 0.23362313 0.56614184 -0.65820754 -0.38609505 -0.0037274312 -0.005386004
0.3918869 0.26554975 0.21947661 -0.52749795 0.3154122 0.029168084 0.32067335 -0.44513655
0.07217399 0.31433934 0.13707963 -0.053874176 -0.26285365 0.42738572 0.36087444 0.14729074
-0.37899128 -0.3585848 -0.048336387 0.28988472 -0.062111467 -0.05049634 -0.10617554 0.11492294
0.0773361 -0.07261656 -0.19916582 -0.014262408 0.38683385 -0.027451353 0.011429639 -0.19963759
-0.39604878 0.028796144 0.36115402 0.37642848 -0.2628873 0.15955916 -0.09241165 0.005621519
0.32441238 -0.5682903 0.0010996464 0.10177499 -0.011178492 0.11439926 0.4685053 0.23593108
0.41850138 0.05834011 -0.07647054 0.19860342 0.36439207 -0.41444117 0.13720958 -0.013225521
-0.020932047 -0.31922567 -0.04975295 0.023339398 0.25134867 0.24857038 -0.029475521 -0.11396668
0.3785382 -0.018719858 -0.077582225 0.0033023097 0.12574348 0.026654111 -0.16218781 -0.14538932
-0.0436464 0.12018167 -0.237406 -0.10666205 -0.23774953 -0.010995159 -0.5385579 0.20276134
-0.11523096 -0.08424152 0.153369 -0.18852702 -0.20759307 -0.26804447 -0.0006185853 -0.05210757
0.101137154 -0.15974726 0.07169407 0.06567803 0.28262964 0.062258884 0.17448436 -0.16163822
0.056029443 -0.5159834 -0.57042545 -0.12378061 0.13625987 -0.42613307 -0.26798335 0.027940925
0.31845188 0.16441089 -0.33291122 -0.5210309 -0.06514753 -0.022113409 -0.33484334 -0.18897441
-0.0021428938 -0.10693557 0.2867693 0.06814366 0.16005851 -0.099837944 0.08836815 -0.073436394
-0.305981 0.09230319 -0.330435 0.3235055 0.45349205 -0.5344088 0.29359627 0.38428497
-0.1620135 -0.03293061 0.028565714 0.19141334 0.20608398 -0.028817173 -0.109235525 -0.095496744
0.02534987 -0.16055521 -0.041893307 0.29494873 0.07521887 -0.08705012 -0.07658705 0.00858762
00000000: 9ba1 783e 329e 363b b9fb 91be 63ec ccbe
00000010: 69df 75bd 453a 95bc b0ca 8abe 731a 81be
00000020: 63df 8abe dbba 35bd 38c6 0dbd b6ae db3d
00000030: 1080 fe3e 29ab 573e b26e 0bbe be9c c13e
00000040: c3f5 9cbe 9cdd 8b3c cf81 43be ef39 17be
00000050: 06bd a4bd b24f c93e 583a 633e 34c2 b03a
00000060: 0216 41bd 4089 513d 476b f23e 19fd 633d
00000070: 137a 0eba 8e52 e83d 80b4 e1be 3855 b23e
00000080: af0c ba3e 04f3 783d f58d 8fbe dc4c 233e
00000090: 9db1 1cbd 81fb d03c 8c0e 3a3c cce1 023d
000000a0: 6707 8cbd 2fc7 163f 6740 653c 21ce a13c
000000b0: 1045 133e 3a74 c9bc d545 eebe ea90 b2be
000000c0: 6c66 acbe 1149 31be 4e47 dfbc c5cc 183c
000000d0: c759 9e3e 4a85 38be 7a39 38bc fee2 c53d
000000e0: 965c c63e 03a5 9c3e 5ff0 25bd 5456 4b3e
000000f0: b34b 49be 543e fabd f639 9ebd 84c9 a1be
00000100: 349a af3e 1a7f a7bc a0e6 bfbe 0549 913e
00000110: 4335 36bd 636f 2ebe d4f5 f1bd 4a69 b1bd
00000120: 7d00 d83d b953 84bc 6e39 803c bf0d 843d
00000130: 6080 1b3d 9143 7abc 4576 03bd 3ba8 8cbe
00000140: 47bb d63e 3260 41be f12a 6cbe 8de9 bebd
00000150: c226 093e c696 df3e a7a4 303d 6ac0 24be
00000160: 66b5 53be 9272 05be 82d8 f43e bbf7 0dbf
00000170: 8dad 923e 93fd 0fbe 26e8 753c a487 2bbe
00000180: 4cc4 32be a6ae 87be cfa6 1fbd a274 cebe
00000190: 7904 d9bc 9316 8d3d 2be9 0fbf 5906 d8bb
000001a0: 7a1b 84be f8ed a03e e73a 6f3e acee 103f
000001b0: 4a80 28bf 40ae c5be eb47 74bb 147d b0bb
000001c0: 66a5 c83e 23f6 873e 7abe 603e 1b0a 07bf
000001d0: b57d a13e e8f1 ee3c 4c2f a43e f0e8 e3be
000001e0: f5cf 933d 16f1 a03e 9a5e 0c3e 2bab 5cbd
000001f0: c194 86be 4dd2 da3e 89c4 b83e 62d3 163e
00000200: 250b c2be 6d98 b7be 60fc 45bd c56b 943e
00000210: 9868 7ebd 40d5 4ebd 9072 d9bd b85c eb3d
00000220: 6462 9e3d feb7 94bd 20f2 4bbe e0ac 69bc
00000230: 160f c63e a9e1 e0bc 6143 3b3c cc6d 4cbe
00000240: e8c6 cabe e4e5 eb3c 2ee9 b83e 3cbb c03e
00000250: 2a99 86be 7a63 233e 5242 bdbd b834 b83b
00000260: 6119 a63e 797b 11bf 0322 903a 686f d03d
00000270: fe25 37bc 294a ea3d eddf ef3e eb97 713e
00000280: d045 d63e 0af6 6e3d 969c 9cbd b25e 4b3e
00000290: 9991 ba3e a231 d4be ab80 0c3e dbaf 58bc
000002a0: af79 abbc 8c71 a3be c0c9 4bbd 4432 bf3c
000002b0: c6b0 803e 3c89 7e3e a676 f1bc 5d67 e9bd
000002c0: c2cf c13e 635a 99bc 6ee3 9ebd 906b 583b
000002d0: e6c2 003e b959 da3c 9014 26be f0e0 14be
000002e0: 91c6 32bd cf21 f63d 8f1a 73be a271 dabd
000002f0: 9d74 73be 0a25 34bc eede 09bf aba0 4f3e
00000300: 36fe ebbd d186 acbd c30c 1d3e 3a0d 41be
00000310: 4793 54be 203d 89be 8f28 22ba bf6e 55bd
00000320: ff20 cf3d c994 23be 57d4 923d 3482 863d
00000330: d5b4 903e 2c03 7f3d 07ac 323e 7d84 25be
00000340: 217f 653d 7d17 04bf 6707 12bf b080 fdbd
00000350: b587 0b3e 1d2e dabe 1d35 89be 5ee4 e43c
00000360: 200c a33e 545b 283e 5773 aabe 4862 05bf
00000370: 116c 85bd 2e27 b5bc 9670 abbe 8282 41be
00000380: cb6f 0cbb 0901 dbbd 6dd3 923e e78e 8b3d
00000390: 61e6 233e d677 ccbd 5cfa b43d d265 96bd
000003a0: 8ba9 9cbe 7409 bd3d c72e a9be 83a2 a53e
000003b0: 1c30 e83e 04cf 08bf 4052 963e 00c1 c43e
000003c0: dee6 25be 3fe2 06bd a502 ea3c dc01 443e
000003d0: ae07 533e fe11 ecbc e0b6 dfbd cc93 c3bd
000003e0: 88aa cf3c 9668 24be 5198 2bbd 8503 973e
000003f0: 5a0c 9a3d 5547 b2bd acd9 9cbd 17b3 0c3c

linear2.bias f4 [3]
0.2599793 0.07567444 0.05190088
00000000: 021c 853e 33fb 9a3d 0496 543d
